…
ps://localhost:8080/"},"id":"U5tLuPrHljjL","executionInfo":{"status":"ok","timestamp":1683167269663,"user_tz":-60,"elapsed":591,"user":{"displayName":"Kareem Hamed","userId":"14793301589637434773"}},"outputId":"e268dcc7-f468-4be2-b114-1befaa31d462"},"execution_count":null,"outputs":[{"output_type":"stream","name":"stdout","text":["Model: \"sequential_1\"\n","_________________________________________________________________\n"," Layer (type)                Output Shape              Param #   \n","=================================================================\n"," conv2d_3 (Conv2D)           (None, 9, 9, 128)         1280      \n","                                                                 \n"," batch_normalization_2 (Batc  (None, 9, 9, 128)        512       \n"," hNormalization)                                                 \n","                                                                 \n"," conv2d_4 (Conv2D)           (None, 9, 9, 64)          73792     \n","                                                                 \n"," batch_normalization_3 (Batc  (None, 9, 9, 64)         256       \n"," hNormalization)                                                 \n","                                                                 \n"," conv2d_5 (Conv2D)           (None, 9, 9, 128)         73856     \n","                                                                 \n"," flatten_1 (Flatten)         (None, 10368)             0         \n","                                                                 \n"," dense_1 (Dense)             (None, 729)               7559001   \n","                                                                 \n"," reshape_1 (Reshape)         (None, 81, 9)             0         \n","                                                                 \n"," activation_1 (Activation)   (None, 81, 9)             0         \n","                                                                 \n","=================================================================\n","Total params: 7,708,697\n","Trainable params: 7,708,313\n","Non-trainable params: 384\n","_________________________________________________________________\n"]}]},{"cell_type":"code","source":["model.fit(x_train, y_train, validation_data = (x_tes
…
